data.pth (torch, 4842 bytes, 6 tensors)

l1.weight f4 [8, 40]
000000 71 09 8b 3d 06 f1 f6 be 63 47 29 3e 2b cb f7 be
       0.0678891 -0.4823076 0.16531138 -0.48397192
000010 d8 1b b2 3d 30 84 2c 3f 7a 19 3e bd 3b a5 80 3f
       0.08696717 0.673892 -0.046411015 1.0050424
000020 95 4b 49 3f 92 e6 f2 be ce 38 f3 bc 78 3f 3e 3e
       0.78630954 -0.47441536 -0.029690173 0.18578899
000030 e2 1e 1b be 2a ea cf 3e 16 b3 9b 3e 49 dd 82 3e
       -0.151485 0.4060834 0.3041007 0.25559452
000040 68 29 2f bf b5 d8 30 3e 4d 81 9d 3e c5 d5 4c be
       -0.68422556 0.17270167 0.3076271 -0.20003422
000050 6f e9 aa 3e 80 17 a6 3c 79 af 50 3f dd 19 95 bc
       0.3338122 0.020274878 0.8151775 -0.01820081
000060 69 91 8e 3e c4 03 71 3e 50 89 92 3e 4d 2b 9d 3e
       0.27845314 0.23536593 0.28620386 0.30697098
000070 8f 55 fc be c7 77 be 3e 2c 84 d0 3b 59 d2 4a 3e
       -0.49284026 0.37200758 0.0063634124 0.19806804
000080 45 70 33 3f 8f 49 eb 3d 4c df 75 3e 69 8c e8 3e
       0.70093185 0.114886396 0.24010962 0.45419624
000090 76 29 b5 bd 10 68 b0 3d 12 64 82 3e f7 52 72 3e
       -0.08845799 0.08613598 0.25466973 0.23664461
0000a0 a7 b1 6d 3c 18 7e 2f 3f c0 f8 cb 3d 9a 52 1e 3f
       0.014507688 0.6855178 0.09959555 0.6184479
0000b0 74 20 6a bd 99 28 b6 bd 15 25 92 3e 24 30 85 3e
       -0.057159856 -0.08894462 0.28543916 0.2601329
0000c0 e9 42 f6 bd 6e 96 07 3f 97 86 cf bb 97 31 5c bd
       -0.12024481 0.5296391 -0.006333183 -0.05375823
0000d0 cf 74 5a bd b9 2d 2e be 23 2a 2e be 1a 30 14 be
       -0.053334054 -0.1700963 -0.17008261 -0.14471474
0000e0 d7 44 2e be 64 2f 2e be f6 6e 31 3c c9 a2 94 3e
       -0.17018448 -0.17010266 0.010829678 0.29030445
0000f0 5a 37 2e be 39 ea d8 bd 11 da bc bd 8c 1e 2a bd
       -0.17013302 -0.105915494 -0.0922128 -0.041533038
000100 9e 38 2e be 43 2b 2e be e1 38 2e be ce 2c 2e be
       -0.17013785 -0.1700869 -0.17013885 -0.17009279
000110 b4 be 14 3f 38 2f 2e be 52 3d 8c bc da 2c 2e be
       0.5810349 -0.170102 -0.017119084 -0.17009297
000120 d6 de ef bd 3c 81 ce bb ad 35 22 be 00 30 2e be
       -0.117124245 -0.006302027 -0.15840788 -0.17010498
000130 3d fa 86 3e 1d 11 9a bb f2 c2 ba bd 0f 0c 0d be
       0.26362792 -0.004701747 -0.09119214 -0.13774131
000140 1e e6 8e 3e 4b 52 17 bf 71 26 9f 3e e3 f6 96 be
       0.2790994 -0.59109944 0.31084016 -0.29485235
000150 83 d8 c6 3d c1 0d 99 3c b2 f7 04 3e 18 91 05 3a
       0.09709265 0.018683316 0.12985113 0.0005095168
000160 d7 5b 96 bd 6b 5c 7d be 7f 46 35 3e 19 05 be 3e
       -0.07341736 -0.24742286 0.17702673 0.37113264
000170 35 63 69 be d3 83 e1 3e 17 4e a4 3e 20 30 94 3e
       -0.2279175 0.44045886 0.32090828 0.28942966
000180 d2 7e 04 bf d7 e0 6a 3e 49 81 58 3e fa 51 6e 3d
       -0.5175601 0.22937332 0.21143068 0.058183648
000190 9c 39 a1 3e e7 de 9d 3e d3 65 6b be 1f c7 74 be
       0.31489265 0.30834123 -0.22988062 -0.23904084
0001a0 68 c5 89 3e 18 88 86 3e f7 7f ca 3e 81 2c d8 3e
       0.26908422 0.26275706 0.39550754 0.42221454
0001b0 07 d5 62 be 02 41 94 3e 07 2f 80 3e 54 5d 8d 3e
       -0.22151576 0.28955847 0.2503588 0.27610266
0001c0 01 ac 66 3d 15 6f 54 3e 2c 34 b6 3e 5e b9 a5 3e
       0.05631638 0.207455 0.3558668 0.32367986
0001d0 aa 83 b6 bd 9f 0b e3 3d 15 be f3 3d aa b1 8a 3e
       -0.08911832 0.11086201 0.1190149 0.27088672
0001e0 0e ee 94 3e 27 69 ad 3e ac 26 01 3d fb cd 11 3f
       0.2908787 0.33869287 0.03153102 0.56954926
0001f0 1e 63 05 3e 67 dc ba bd 07 0b 50 3e 2b ab b8 be
       0.13026091 -0.0912407 0.20316707 -0.3606809
000200 f8 bb a5 3d 22 65 08 3f b0 a9 19 3e 3f 88 21 3e
       0.08092493 0.53279316 0.15006137 0.1577463
000210 15 47 49 bd 14 64 db 3e 2b b4 c2 3e 5d e6 8c 3e
       -0.049140055 0.4284979 0.38028082 0.27519503
000220 03 f5 21 bf bc 0d aa 3e bd 3e 2a 3e 6f 46 e0 3e
       -0.63264483 0.33213603 0.16625495 0.43803737
000230 01 3a 90 3e 18 ec 2f 3f e1 71 b8 bd 50 20 14 be
       0.28169253 0.68719625 -0.09006096 -0.14465451
000240 dc 56 c2 3e d6 d0 d2 3e ea 13 d4 3e e1 94 c3 3e
       0.37956893 0.41174954 0.41421443 0.38199523
000250 bb 24 07 3f 52 d2 98 3e a6 8e 69 3d 51 a0 a1 3e
       0.5279042 0.29847962 0.057020806 0.31567624
000260 b7 bf d2 3d bb a4 34 3e 56 48 21 3e ff 4f c1 3e
       0.10290473 0.17640965 0.1575025 0.37756345
000270 5e 6e c7 3e fc 34 db 3c 4a c4 89 3e a9 4e 7d 3e
       0.3895139 0.026758663 0.2690757 0.24737038
000280 3f b8 50 bd 8c 79 f8 3e 14 d7 a3 3e 0b 7f ed 3e
       -0.05095696 0.48530233 0.3200003 0.4638599
000290 9a 6c 92 3d de 69 65 be 41 50 cd 3d 14 cb 23 bf
       0.0714962 -0.22403666 0.10025073 -0.6398175
0002a0 7c f2 d4 be a2 98 0f 3f 10 e7 af bd 4a dc 84 be
       -0.4159125 0.56092274 -0.085889935 -0.25949317
0002b0 24 f8 13 3f 9a d9 e5 bd 42 11 74 be 31 d5 6b 3e
       0.5780051 -0.11223145 -0.23834708 0.23030545
0002c0 98 4a 82 3f 64 58 4d be 4e 09 6d bc 89 c7 66 3e
       1.0179014 -0.2005325 -0.01446755 0.22537054
0002d0 b9 17 71 be bb 82 27 3e 45 ee a7 be 64 28 07 3f
       -0.23544206 0.16358463 -0.32798973 0.52796006
0002e0 a6 2c 42 be 37 e9 8d be 30 2d 70 be cb 51 45 be
       -0.18962345 -0.2771699 -0.23454738 -0.19269483
0002f0 95 b3 0e 3f d9 ef ee bd 84 36 39 be dc 61 41 be
       0.5574277 -0.11666841 -0.18087202 -0.18884987
000300 5d a7 9f be ca 13 62 3e ef 2b 9f be c7 56 33 be
       -0.31182376 0.22077861 -0.31088206 -0.17513572
000310 f9 b8 ef 3c 69 e6 cf bd f4 b8 f2 3d 5f a1 5e 3c
       0.029263007 -0.10151369 0.11851683 0.013588279
000320 dd a5 5b be 6c aa 2e 3f b1 59 2a be df ce f0 3e
       -0.2144999 0.68228793 -0.16635777 0.4703283
000330 59 f5 d0 bd 9a 57 e6 3e a1 a6 a2 3e d1 e7 82 3e
       -0.10203046 0.4498871 0.31767753 0.25567487
000340 6d cd 85 3e 62 07 cf 3e aa ad 8c bc aa c9 8e bd
       0.2613329 0.4043532 -0.017172653 -0.06972058
000350 2c 19 bf 3e 30 2f d5 be 0d b7 b7 be e2 a9 70 3d
       0.37323892 -0.41637564 -0.35881844 0.058755763
000360 f0 83 53 3f 92 36 d5 be f3 b3 ec bb 40 2c c6 3e
       0.82623196 -0.41643196 -0.0072236 0.38705635
000370 9d 34 d5 be 0b fa 5b be 2c 70 bd 3e e5 5e f0 3e
       -0.41641703 -0.21482103 0.36999643 0.469474
000380 c3 34 d5 be d2 8c a4 be 25 67 b8 be 59 36 c1 be
       -0.41641816 -0.32138687 -0.36016193 -0.37736776
000390 b6 24 b1 3e df 2c d5 be 39 76 d0 bc 90 2c d5 be
       0.3459832 -0.41635796 -0.025446998 -0.4163556
0003a0 ee f2 9f 3e 8f 59 80 bd 20 ca 36 be 28 30 d5 be
       0.31240028 -0.06267082 -0.17850542 -0.41638303
0003b0 46 95 26 3e 14 c9 ac bb b1 f0 69 bd b9 5a 2d bd
       0.16267881 -0.005272994 -0.057114307 -0.042322848
0003c0 f8 02 23 3e fc 5d db be cf 9e 36 3e f4 76 b1 be
       0.15919101 -0.42845142 0.17834018 -0.34661067
0003d0 a8 f5 10 3e 54 22 4b be 8c 0c 8f 3d 3b 7a 01 bf
       0.1415621 -0.19837314 0.06984815 -0.50577134
0003e0 7b 64 9d be 89 17 c4 be b9 dc 1a 3e 82 1a d9 3d
       -0.30740723 -0.38299206 0.15123262 0.10600759
0003f0 6b 93 f0 bd be 92 8a 3e 9a 0e da 3e 5a 23 f6 3d
       -0.11746868 0.2706508 0.42589265 0.120184615

l1.bias f4 [8]
000000 b0 22 2f 3f e7 29 2e 3e e6 9c 16 3f 39 53 23 3f
       0.68412304 0.17008172 0.5883316 0.6379886
000010 63 ce 23 3f d7 30 d5 3e a2 79 01 3f 79 60 0a 3f
       0.63986796 0.41638824 0.5057622 0.54053456

l2.weight f4 [8, 8]
000000 70 d8 d8 3d e0 73 30 bf 26 a9 e7 3e 14 29 1e 3e
       0.10588157 -0.6892681 0.45246238 0.15445358
000010 96 6d 0c bd 32 10 4e bf e2 91 85 3f 29 b1 d2 3e
       -0.034284197 -0.8049346 1.0435145 0.41150787
000020 c9 97 6c bf ed 8c 33 3f 15 71 12 be 2c fc 31 3f
       -0.92419106 0.7013691 -0.1430095 0.6952541
000030 7a bd 8c 3f a4 53 67 3f 3c 17 7f be 52 0d 93 3f
       1.0995324 0.90362 -0.24911207 1.148844
000040 f6 4c 09 be 00 26 4d 3b dd ca 4e be c0 91 2d bd
       -0.13408265 0.0031303167 -0.20194574 -0.042375326
000050 e7 ff 94 be 07 1c 33 be 6c b9 e2 3d 86 4a 21 3e
       -0.29101488 -0.1749116 0.11070523 0.15751085
000060 51 83 ad 3f e1 74 f2 3e 84 cc 3b 3f e4 64 a6 3f
       1.35557 0.47354797 0.7335894 1.2999539
000070 06 e6 b5 be 3e 59 09 bd 0a 76 ad bd c8 fe 85 3f
       -0.35527056 -0.033532374 -0.0846978 1.0468378
000080 e9 00 b1 bf 5d 93 ca be 22 da 97 be 7b 43 0a bf
       -1.3828403 -0.39565554 -0.2965861 -0.5400922
000090 4a dc 89 3f 9b e9 67 3f fe f0 4f bf a2 87 63 bf
       1.0770352 0.9059083 -0.812271 -0.88878834
0000a0 1f f4 9e 3f 37 9a be be 77 68 78 3f 9b 52 7f 3e
       1.241825 -0.37227032 0.970344 0.24933855
0000b0 69 1e 34 bf af 37 0e be 4f 7b 39 3f d7 97 bc bc
       -0.703589 -0.13888429 0.7245378 -0.023021622
0000c0 93 a1 ae be 26 fe 87 bd 5e 6a 36 3f c9 d3 95 3f
       -0.34107646 -0.06640272 0.71256053 1.1705257
0000d0 4b 8f df 3e 77 af 32 bf bf 0c 9c 3f f0 ec b5 3f
       0.4366401 -0.6979899 1.219139 1.4212933
0000e0 2b 9b dd 3d bb e1 78 bf a2 88 13 3f f0 bc c3 3e
       0.108206116 -0.9721944 0.5763036 0.38230085
0000f0 d9 d7 29 be f5 dc 75 bf b9 f7 82 3f f4 73 2b 3f
       -0.16586246 -0.9604028 1.0231849 0.66973805

l2.bias f4 [8]
000000 b7 e3 82 3e 49 af b1 3e a8 41 9f bd 15 2e 23 3f
       0.25564358 0.34704044 -0.07776195 0.6374219
000010 0b c8 a3 3e 2f 31 8b 3e d5 b2 b1 3d d2 34 1e 3e
       0.31988558 0.27185962 0.08676688 0.15449837

l3.weight f4 [4, 8]
000000 02 77 5a 3f c6 c3 18 bf f5 17 a7 3e 43 b4 64 be
       0.8533784 -0.59673727 0.32635465 -0.2233439
000010 f4 58 5b bf f4 82 aa 3e 0e cb 5a 3f 51 52 9b 3f
       -0.85682607 0.33303034 0.85466087 1.2134496
000020 48 17 81 bd 9e c9 78 bf 30 f2 97 be 19 45 3a 3f
       -0.06303269 -0.97182643 -0.29676962 0.72761685
000030 50 cd 4b bf a1 6c 6e 3f a7 05 90 bf 96 f9 b7 be
       -0.79610157 0.93134505 -1.1251725 -0.35932606
000040 fa e2 53 bf 55 78 2e 3f 76 9b 35 3e 42 c9 a8 3e
       -0.82768214 0.6815236 0.17735085 0.32966048
000050 e1 bb 9e bf d7 e0 a2 bf 36 3f 2f 3f 5c 11 86 bf
       -1.2401086 -1.2724866 0.6845583 -1.0474048
000060 e7 77 74 be f1 d5 0f 3f 2a 4c 71 3e 5e fc 74 bf
       -0.23873864 0.56185824 0.2356421 -0.9569758
000070 8b 44 58 3f 4c 53 a1 be 12 66 10 bf 46 52 14 bf
       0.8447959 -0.31508863 -0.56405747 -0.5793804

l3.bias f4 [4]
000000 e5 75 c5 be a0 5f 1c 3e ea f5 e0 be b7 de 80 3e
       -0.3856651 0.15270853 -0.43937618 0.25169918
